…
 eps=1e-06, affine=True)\n            (conv1): LoRACompatibleConv(512, 512, kernel_size=(3, 3), stride=(1, 1), padding=(1, 1))\n            (norm2): GroupNorm(32, 512, eps=1e-06, affine=True)\n            (dropout): Dropout(p=0.0, inplace=False)\n            (conv2): LoRACompatibleConv(512, 512, kernel_size=(3, 3), stride=(1, 1), padding=(1, 1))\n            (nonlinearity): SiLU()\n          )\n        )\n      )\n    )\n    (mid_block): UNetMidBlock2D(\n      (attentions): ModuleList(\n        (0): Attention(\n          (group_norm): GroupNorm(32, 512, eps=1e-06, affine=True)\n          (to_q): Linear(in_features=512, out_features=512, bias=True)\n          (to_k): Linear(in_features=512, out_features=512, bias=True)\n          (to_v): Linear(in_features=512, out_features=512, bias=True)\n          (to_out): ModuleList(\n            (0): Linear(in_features=512, out_features=512, bias=True)\n            (1): Dropout(p=0.0, inplace=False)\n          )\n        )\n      )\n      (resnets): ModuleList(\n        (0-1): 2 x ResnetBlock2D(\n          (norm1): GroupNorm(32, 512, eps=1e-06, affine=True)\n          (conv1): LoRACompatibleConv(512, 512, kernel_size=(3, 3), stride=(1, 1), padding=(1, 1))\n          (norm2): GroupNorm(32, 512, eps=1e-06, affine=True)\n          (dropout): Dropout(p=0.0, inplace=False)\n          (conv2): LoRACompatibleConv(512, 512, kernel_size=(3, 3), stride=(1, 1), padding=(1, 1))\n          (nonlinearity): SiLU()\n        )\n      )\n    )\n    (conv_norm_out): GroupNorm(32, 512, eps=1e-06, affine=True)\n    (conv_act): SiLU()\n    (conv_out): Conv2d(512, 8, kernel_size=(3, 3), stride=(1, 1), padding=(1, 1))\n  )\n  (decoder): Decoder(\n    (conv_in): Conv2d(4, 512, kernel_size=(3, 3), stride=(1, 1), padding=(1, 1))\n    (up_blocks): ModuleList(\n      (0-1): 2 x UpDecoderBlock2D(\n        (resnets): ModuleList(\n          (0-2): 3 x ResnetBlock2D(\n            (norm1): GroupNorm(32, 512, eps=1e-06, affine=True)\n            (conv1): LoRACompatibleConv(512, 512, kernel_size=(3, 3), stride=(1, 1), padding=(1, 1))\n            (norm2): GroupNorm(32, 512
…
 eps=1e-06, affine=True)\n            (conv1): LoRACompatibleConv(128, 128, kernel_size=(3, 3), stride=(1, 1), padding=(1, 1))\n            (norm2): GroupNorm(32, 128, eps=1e-06, affine=True)\n            (dropout): Dropout(p=0.0, inplace=False)\n            (conv2): LoRACompatibleConv(128, 128, kernel_size=(3, 3), stride=(1, 1), padding=(1, 1))\n            (nonlinearity): SiLU()\n          )\n        )\n      )\n    )\n    (mid_block): UNetMidBlock2D(\n      (attentions): ModuleList(\n        (0): Attention(\n          (group_norm): GroupNorm(32, 512, eps=1e-06, affine=True)\n          (to_q): Linear(in_features=512, out_features=512, bias=True)\n          (to_k): Linear(in_features=512, out_features=512, bias=True)\n          (to_v): Linear(in_features=512, out_features=512, bias=True)\n          (to_out): ModuleList(\n            (0): Linear(in_features=512, out_features=512, bias=True)\n            (1): Dropout(p=0.0, inplace=False)\n          )\n        )\n      )\n      (resnets): ModuleList(\n        (0-1): 2 x ResnetBlock2D(\n          (norm1): GroupNorm(32, 512, eps=1e-06, affine=True)\n          (conv1): LoRACompatibleConv(512, 512, kernel_size=(3, 3), stride=(1, 1), padding=(1, 1))\n          (norm2): GroupNorm(32, 512, eps=1e-06, affine=True)\n          (dropout): Dropout(p=0.0, inplace=False)\n          (conv2): LoRACompatibleConv(512, 512, kernel_size=(3, 3), stride=(1, 1), padding=(1, 1))\n          (nonlinearity): SiLU()\n        )\n      )\n    )\n    (conv_norm_out): GroupNorm(32, 128, eps=1e-06, affine=True)\n    (conv_act): SiLU()\n    (conv_out): Conv2d(128, 3, kernel_size=(3, 3), stride=(1, 1), padding=(1, 1))\n  )\n  (quant_conv): Conv2d(8, 8, kernel_size=(1, 1), stride=(1, 1))\n  (post_quant_conv): Conv2d(4, 4, kernel_size=(1, 1), stride=(1, 1))\n)\n\n\n\ntokenizer\n\nCLIPTokenizer(name_or_path='/root/.cache/huggingface/hub/models--CompVis--stable-diffusion-v1-4/snapshots/133a221b8aa7292a167afc5127cb63fb5005638b/tokenizer', vocab_size=49408, model_max_length=77, is_fast=False, padding_side='right', truncation_side='right', special_tokens={'bos_token': AddedToken(\"&lt;|startoftext|&gt;\", rstrip=False, lstrip=False, single_word=False, normalized=True), 'eos_token': AddedToken(\"&lt;|endoftext|&gt;\", rstrip=False, lstrip=False, single_word=False, normalized=True), 'unk_token': AddedToken(\"&lt;|endoftext|&gt;\", rstrip=False, lstrip=False, single_word=False, normalized=True), 'pad_token': '&lt;|endoftext|&gt;'}, clean_up_tokenization_spaces=True)\n\n\n\ntext_encoder\n\nCLIPTextModel(\n  (text_model): CLIPTextTransformer(\n    (embeddings): CLIPTextEmbeddings(\n      (token_embedding): Embedding(49408, 768)\n      (position_embedding): Embedding(77, 768)\n    )\n    (encoder): CLIPEncoder(\n      (layers): ModuleList(\n        (0-11): 12 x CLIPEncoderLayer(\n          (self_attn): CLIPAttention(\n            (k_proj): Linear(in_features=768, out_features=768, bias=True)\n            (v_proj): Linear(in_features=768, out_features=768, bias=True)\n            (q_proj): Linear(in_features=768, out_features=768, bias=True)\n            (out_proj): Linear(in_features=768, out_features=768, bias=True)\n          )\n          (layer_norm1): LayerNorm((768,), eps=1e-05, elementwise_affine=True)\n          (mlp): CLIPMLP(\n            (activation_fn): QuickGELUActivation()\n            (fc1): Linear(in_features=768, out_features=3072, bias=True)\n            (fc2): Linear(in_features=3072, out_features=768, bias=True)\n          )\n          (layer_norm2): LayerNorm((768,), eps=1e-05, elementwise_affine=True)\n        )\n      )\n    )\n    (final_layer_norm): LayerNorm((768,), eps=1e-05, elementwise_affine=True)\n  )\n)\n\n\n\nunet\n\nUNet2DConditionModel(\n  (conv_in): Conv2d(4, 320, kernel_size=(3, 3), stride=(1, 1), padding=(1, 1))\n  (time_proj): Timesteps()\n  (time_embedding): TimestepEmbedding(\n    (linear_1): Linear(in_features=320, out_features=1280, bias=True)\n    (act): SiLU()\n    (linear_2): Linear(in_features=1280, out_features=1280, bias=True)\n  )\n  (down_blocks): ModuleList(\n    (0): CrossAttnDownBlock2D(\n      (attentions): ModuleList(\n        (0-1): 2 x Transformer2DModel(\n          (norm): GroupNorm(32, 320, eps=1e-06, affine=True)\n          (proj_in): LoRACompatibleConv(320, 320, kernel_size=(1, 1), stride=(1, 1))\n          (transformer_blocks): ModuleList(\n            (0): BasicTransformerBlock(\n              (norm1): LayerNorm((320,), eps=1e-05, elementwise_affine=True)\n              (attn1): Attention(\n                (to_q): Linear(in_features=320, out_features=320, bias=False)\n                (to_k): Linear(in_features=320, out_features=320, bias=False)\n                (to_v): Linear(in_features=320, out_features=320, bias=False)\n                (to_out): ModuleList(\n                  (0): Linear(in_features=320, out_features=320, bias=True)\n                  (1): Dropout(p=0.0, inplace=False)\n                )\n              )\n              (norm2): LayerNorm((320,), eps=1e-05, elementwise_affine=True)\n              (attn2): Attention(\n                (to_q): Linear(in_features=320, out_features=320, bias=False)\n                (to_k): Linear(in_features=768, out_features=320, bias=False)\n                (to_v): Linear(in_features=768, out_features=320, bias=False)\n                (to_out): ModuleList(\n                  (0): Linear(in_features=320, out_features=320, bias=True)\n                  (1): Dropout(p=0.0, inplace=False)\n                )\n              )\n              (norm3): LayerNorm((320,), eps=1e-05, elementwise_affine=True)\n              (ff): FeedForward(\n                (net): ModuleList(\n                  (0): GEGLU(\n                    (proj): LoRACompatibleLinear(in_features=320, out_features=2560, bias=True)\n                  )\n                  (1): Dropout(p=0.0, inplace=False)\n                  (2): LoRACompatibleLinear(in_features=1280, out_features=320, bi
…
        (nonlinearity): SiLU()\n        )\n      )\n      (downsamplers): ModuleList(\n        (0): Downsample2D(\n          (conv): LoRACompatibleConv(320, 320, kernel_size=(3, 3), stride=(2, 2), padding=(1, 1))\n        )\n      )\n    )\n    (1): CrossAttnDownBlock2D(\n      (attentions): ModuleList(\n        (0-1): 2 x Transformer2DModel(\n          (norm): GroupNorm(32, 640, eps=1e-06, affine=True)\n          (proj_in): LoRACompatibleConv(640, 640, kernel_size=(1, 1), stride=(1, 1))\n          (transformer_blocks): ModuleList(\n            (0): BasicTransformerBlock(\n              (norm1): LayerNorm((640,), eps=1e-05, elementwise_affine=True)\n              (attn1): Attention(\n                (to_q): Linear(in_features=640, out_features=640, bias=False)\n                (to_k): Linear(in_features=640, out_features=640, bias=False)\n                (to_v): Linear(in_features=640, out_features=640, bias=False)\n                (to_out): ModuleList(\n                  (0): Linear(in_features=640, out_features=640, bias=True)\n                  (1): Dropout(p=0.0, inplace=False)\n                )\n              )\n              (norm2): LayerNorm((640,), eps=1e-05, elementwise_affine=True)\n              (attn2): Attention(\n                (to_q): Linear(in_features=640, out_features=640, bias=False)\n                (to_k): Linear(in_features=768, out_features=640, bias=False)\n                (to_v): Linear(in_features=768, out_features=640, bias=False)\n                (to_out): ModuleList(\n                  (0): Linear(in_features=640, out_features=640, bias=True)\n                  (1): Dropout(p=0.0, inplace=False)\n                )\n              )\n              (norm3): LayerNorm((640,), eps=1e-05, elementwise_affine=True)\n              (ff): FeedForward(\n                (net): ModuleList(\n                  (0): GEGLU(\n                    (proj): LoRACompatibleLinear(in_features=640, out_features=5120, bias=True)\n                  )\n                  (1): Dropout(p=0.0, inplace=False)\n                  (2): LoRACompatibleLinear(in_features=2560, out_features=640, bi
…
     (nonlinearity): SiLU()\n        )\n      )\n      (downsamplers): ModuleList(\n        (0): Downsample2D(\n          (conv): LoRACompatibleConv(640, 640, kernel_size=(3, 3), stride=(2, 2), padding=(1, 1))\n        )\n      )\n    )\n    (2): CrossAttnDownBlock2D(\n      (attentions): ModuleList(\n        (0-1): 2 x Transformer2DModel(\n          (norm): GroupNorm(32, 1280, eps=1e-06, affine=True)\n          (proj_in): LoRACompatibleConv(1280, 1280, kernel_size=(1, 1), stride=(1, 1))\n          (transformer_blocks): ModuleList(\n            (0): BasicTransformerBlock(\n              (norm1): LayerNorm((1280,), eps=1e-05, elementwise_affine=True)\n              (attn1): Attention(\n                (to_q): Linear(in_features=1280, out_features=1280, bias=False)\n                (to_k): Linear(in_features=1280, out_features=1280, bias=False)\n                (to_v): Linear(in_features=1280, out_features=1280, bias=False)\n                (to_out): ModuleList(\n                  (0): Linear(in_features=1280, out_features=1280, bias=True)\n                  (1): Dropout(p=0.0, inplace=False)\n                )\n              )\n              (norm2): LayerNorm((1280,), eps=1e-05, elementwise_affine=True)\n              (attn2): Attention(\n                (to_q): Linear(in_features=1280, out_features=1280, bias=False)\n                (to_k): Linear(in_features=768, out_features=1280, bias=False)\n                (to_v): Linear(in_features=768, out_features=1280, bias=False)\n                (to_out): ModuleList(\n                  (0): Linear(in_features=1280, out_features=1280, bias=True)\n                  (1): Dropout(p=0.0, inplace=False)\n                )\n              )\n              (norm3): LayerNorm((1280,), eps=1e-05, elementwise_affine=True)\n              (ff): FeedForward(\n                (net): ModuleList(\n                  (0): GEGLU(\n                    (proj): LoRACompatibleLinear(in_features=1280, out_features=10240, bias=True)\n                  )\n                  (1): Dropout(p=0.0, inplace=False)\n                  (2): LoRACompatibleLinear(in_features=5120, out_features=1280
…
, kernel_size=(1, 1), stride=(1, 1))\n        )\n      )\n      (upsamplers): ModuleList(\n        (0): Upsample2D(\n          (conv): LoRACompatibleConv(640, 640, kernel_size=(3, 3), stride=(1, 1), padding=(1, 1))\n        )\n      )\n    )\n    (3): CrossAttnUpBlock2D(\n      (attentions): ModuleList(\n        (0-2): 3 x Transformer2DModel(\n          (norm): GroupNorm(32, 320, eps=1e-06, affine=True)\n          (proj_in): LoRACompatibleConv(320, 320, kernel_size=(1, 1), stride=(1, 1))\n          (transformer_blocks): ModuleList(\n            (0): BasicTransformerBlock(\n              (norm1): LayerNorm((320,), eps=1e-05, elementwise_affine=True)\n              (attn1): Attention(\n                (to_q): Linear(in_features=320, out_features=320, bias=False)\n                (to_k): Linear(in_features=320, out_features=320, bias=False)\n                (to_v): Linear(in_features=320, out_features=320, bias=False)\n                (to_out): ModuleList(\n                  (0): Linear(in_features=320, out_features=320, bias=True)\n                  (1): Dropout(p=0.0, inplace=False)\n                )\n              )\n              (norm2): LayerNorm((320,), eps=1e-05, elementwise_affine=True)\n              (attn2): Attention(\n                (to_q): Linear(in_features=320, out_features=320, bias=False)\n                (to_k): Linear(in_features=768, out_features=320, bias=False)\n                (to_v): Linear(in_features=768, out_features=320, bias=False)\n                (to_out): ModuleList(\n                  (0): Linear(in_features=320, out_features=320, bias=True)\n                  (1): Dropout(p=0.0, inplace=False)\n                )\n              )\n              (norm3): LayerNorm((320,), eps=1e-05, elementwise_affine=True)\n              (ff): FeedForward(\n                (net): ModuleList(\n                  (0): GEGLU(\n                    (proj): LoRACompatibleLinear(in_features=320, out_features=2560, bias=True)\n                  )\n                  (1): Dropout(p=0.0, inplace=False)\n                  (2): LoRACompatibleLinear(in_features=1280, out_features=320, bi
…
 (conv2): LoRACompatibleConv(320, 320, kernel_size=(3, 3), stride=(1, 1), padding=(1, 1))\n          (nonlinearity): SiLU()\n          (conv_shortcut): LoRACompatibleConv(640, 320, kernel_size=(1, 1), stride=(1, 1))\n        )\n      )\n    )\n  )\n  (mid_block): UNetMidBlock2DCrossAttn(\n    (attentions): ModuleList(\n      (0): Transformer2DModel(\n        (norm): GroupNorm(32, 1280, eps=1e-06, affine=True)\n        (proj_in): LoRACompatibleConv(1280, 1280, kernel_size=(1, 1), stride=(1, 1))\n        (transformer_blocks): ModuleList(\n          (0): BasicTransformerBlock(\n            (norm1): LayerNorm((1280,), eps=1e-05, elementwise_affine=True)\n            (attn1): Attention(\n              (to_q): Linear(in_features=1280, out_features=1280, bias=False)\n              (to_k): Linear(in_features=1280, out_features=1280, bias=False)\n              (to_v): Linear(in_features=1280, out_features=1280, bias=False)\n              (to_out): ModuleList(\n                (0): Linear(in_features=1280, out_features=1280, bias=True)\n                (1): Dropout(p=0.0, inplace=False)\n              )\n            )\n            (norm2): LayerNorm((1280,), eps=1e-05, elementwise_affine=True)\n            (attn2): Attention(\n              (to_q): Linear(in_features=1280, out_features=1280, bias=False)\n              (to_k): Linear(in_features=768, out_features=1280, bias=False)\n              (to_v): Linear(in_features=768, out_features=1280, bias=False)\n              (to_out): ModuleList(\n                (0): Linear(in_features=1280, out_features=1280, bias=True)\n                (1): Dropout(p=0.0, inplace=False)\n              )\n            )\n            (norm3): LayerNorm((1280,), eps=1e-05, elementwise_affine=True)\n            (ff): FeedForward(\n              (net): ModuleList(\n                (0): GEGLU(\n                  (proj): LoRACompatibleLinear(in_features=1280, out_features=10240, bias=True)\n                )\n                (1): Dropout(p=0.0, inplace=False)\n                (2): LoRACompatibleLinear(in_features=5120, out_features=1280, bias=True)\n
…
